LeNet_5_state_dict.pth (torch, 250315 bytes, 10 tensors)

conv.0.weight f4 [6, 1, 5, 5]
000000 92 9d c0 be 4b b8 bc be 7e 52 c0 bc e0 57 60 be
       -0.37620217 -0.36859354 -0.023476835 -0.21908522
000010 a5 ab b1 3d 98 3f 5b be 89 18 2a be 27 93 59 3e
       0.08675317 -0.21410978 -0.16610922 0.2124754
000020 96 f4 9a 3d ff 59 04 3d 84 6b 80 3e 97 d8 d8 3e
       0.07566182 0.03231239 0.25082028 0.42352745
000030 84 3e d5 3e 16 33 1d 3e 78 e6 ce 3e 2c 69 51 3e
       0.41649258 0.15351519 0.4041021 0.20450276
000040 d9 47 65 3d 46 77 4e bd 9c 7e 22 ba d6 84 17 3e
       0.055976722 -0.050406717 -0.0006198676 0.14796767
000050 a2 db 0b 3d 53 fb 91 be a4 54 07 be e1 43 a4 be
       0.034145005 -0.28512058 -0.13215882 -0.32083037
000060 fb 1e 76 be a3 6f 7b bd 68 f1 94 3e 09 5e 33 3c
       -0.24035256 -0.061385762 0.29090428 0.010947713
000070 1d 60 64 be e1 26 79 be 76 fb e6 3d 08 2b 94 3e
       -0.2230229 -0.24331237 0.11278431 0.2893908
000080 ac cb f3 3e dc 1a 4e 3d d3 0d 5a bd 12 de 8f be
       0.47616327 0.050318584 -0.05323584 -0.28099114
000090 42 31 32 bd dd b4 83 3e 9d d9 2d 3e d8 92 67 be
       -0.043504007 0.25723925 0.16977544 -0.2261461
0000a0 67 42 6c be 55 16 93 be 60 ed 63 3e 4a b1 c4 3d
       -0.23072205 -0.28727975 0.2225852 0.09604128
0000b0 32 51 a0 3e 79 92 af be c2 7e 11 3e 0e 98 6d 3e
       0.31311947 -0.34291437 0.1420851 0.23202536
0000c0 c7 69 e3 3d ac 5f 6d 3e c4 0f 07 be 63 46 16 bd
       0.1110416 0.23181027 -0.13189608 -0.03668822
0000d0 bf c4 fd 3d 9d a1 91 bc e5 6c 9a be 38 b6 a0 be
       0.12391042 -0.017777259 -0.30161205 -0.31389022
0000e0 80 38 84 3e 90 b9 4c 3e 2d ad bd bc 54 c5 4d be
       0.25824356 0.19992661 -0.023153866 -0.20094806
0000f0 6d a1 27 bd ac fe 13 3d 37 cb 36 3e fc 67 05 3e
       -0.040925432 0.036131546 0.17850958 0.13027948
000100 8e ef 8c 3d ed e6 1f bd 80 0e 4b 3e c9 58 58 3e
       0.06881629 -0.039038587 0.1982975 0.21127619
000110 b6 6e c6 3e f7 a0 34 3e 67 57 bd 3d c1 83 47 be
       0.3875634 0.17639528 0.09245186 -0.19483854
000120 ed 49 40 bd 2e 49 2e 3e b1 f0 3f bd 87 a9 89 3d
       -0.0469455 0.17020103 -0.0468604 0.06721788
000130 ab 1a 33 bb ed 1c 4f 3e 00 0b 30 3d 72 ad 5e be
       -0.0027329128 0.20225878 0.04297924 -0.21745852
000140 c0 26 7a bd c2 b6 c5 3e 13 40 d7 3e 19 2d bc 3d
       -0.06107211 0.38615996 0.42041072 0.09188289
000150 2f 06 5c 3d 84 6d 5b 3e d7 c9 08 3f 28 80 3c 3e
       0.053716835 0.21428496 0.53432983 0.18408263
000160 f3 62 c4 bd c8 7a d3 be d1 c3 a8 bd a8 57 7f 3e
       -0.095891856 -0.41304612 -0.08240474 0.24935782
000170 13 a9 ce bd b1 84 7e 3d f1 40 4b be c0 2d c6 bd
       -0.10090842 0.062138263 -0.19848992 -0.09676695
000180 2e ce e0 3d 5d bf f4 3d 4e 81 4f bd 64 ba 27 be
       0.10976826 0.11950562 -0.050660424 -0.16379696
000190 cc 80 e1 be e8 8d ea bd 5e d7 46 3c 9f 6f 98 3e
       -0.44043577 -0.11452848 0.0121363085 0.2977266
0001a0 27 fe ff 3d 7f 13 fb be a6 5a 00 be 3a 55 82 3e
       0.124996476 -0.49038312 -0.1253458 0.25455648
0001b0 8e d4 8a 3e 91 e2 3b 3d b1 5f ba be 5d 9b 82 3e
       0.2711529 0.045870367 -0.36401132 0.25509158
0001c0 c6 de 23 3e 4d 16 a5 3e a2 18 9f be 16 30 8f be
       0.1600295 0.32243577 -0.3107348 -0.27966374
0001d0 1b 8c ae 3d b1 6e af 3e 2a a5 3f 3e 2e af 11 bf
       0.08522817 0.34264138 0.18715349 -0.5690793
0001e0 48 bb ce bc b9 68 5a 3e 81 fb 28 3e 38 c4 35 be
       -0.025235787 0.21329011 0.16502191 -0.17750633
0001f0 21 e3 b4 be c2 23 62 bc cb 0f 8b 3d 96 fa 1a 3e
       -0.35329536 -0.013802471 0.06790122 0.15134653
000200 cd 96 4c be bd 8d cc bd 4c 1d 09 3e 62 fd 95 3e
       -0.19979401 -0.09987972 0.13390082 0.29294878
000210 36 0c a2 3e ae 2a c6 3e 3b 5c d5 3d 3a 65 b8 3c
       0.3164994 0.38704437 0.10417982 0.022509206
000220 a1 dc 19 3e a4 97 fd 3e 7f 96 9f 3e eb c3 94 3e
       0.1502557 0.49529755 0.31169507 0.29055724
000230 c1 77 60 3c 82 3a a5 be 0f 5d 91 be 8e 66 20 3e
       0.013700427 -0.322712 -0.2839131 0.15664122
000240 59 07 83 3e 8f e5 0d bf d1 fe 16 bf d5 5f 13 bf
       0.25591543 -0.55428404 -0.5898257 -0.57568103
000250 cb 00 d1 be 5e a0 09 be
       -0.40820917 -0.13440081

conv.0.bias f4 [6]
000000 3a 14 83 bd 88 11 c2 be cd f5 51 be 64 df b7 be
       -0.06400342 -0.37904 -0.20503922 -0.3591262
000010 54 af 5f be 68 d0 56 3c
       -0.21844226 0.013111211

conv.3.weight f4 [16, 6, 5, 5]
000000 48 64 c1 be 25 30 aa bd 0b de bd 3d cf b3 de 3d
       -0.3777182 -0.08309964 0.09270867 0.108741395
000010 3c 2d ac bd 03 2c 8d bd f5 f0 0a 3e 54 20 40 3c
       -0.08407065 -0.0689316 0.1356848 0.011726458
000020 5d 85 fb bc 5c 9a 16 be 91 72 6d 3d 89 a5 f8 3d
       -0.030703241 -0.14707321 0.057970587 0.12140948
000030 8d 78 10 3e c7 b9 c8 3c 79 d3 26 3d 18 1b a2 3d
       0.14108486 0.024502648 0.04072902 0.07915324
000040 ac 3f 53 3d 61 f0 ba bd 50 eb 1f bd 41 40 fc 3d
       0.051574394 -0.0912788 -0.03904277 0.12316943
000050 ec 5d 09 be 2a 17 83 be 48 7f 74 3d 9b 5a f2 bb
       -0.13414735 -0.2560361 0.059691697 -0.007396055
000060 11 b7 26 be 55 e2 98 bd 8b c3 fc bd 39 6e 32 bd
       -0.16280772 -0.074650444 -0.12341984 -0.043562148
000070 f9 39 5c be 9c b7 fb bd 75 ff 96 3b 79 d1 ad bd
       -0.2150649 -0.1229088 0.0046080896 -0.08487219
000080 ac dc 4a bb 97 8a 12 3e 59 38 6f be 5e 72 cb 3b
       -0.0030954285 0.1431068 -0.23361339 0.006208702
000090 c3 75 40 bb 9c 27 5a 3e 90 50 cc 3e 28 5d f4 3c
       -0.0029367066 0.21304172 0.39905214 0.029829577
0000a0 b7 99 36 be bd 20 a7 bb 2b 46 14 3e af eb 56 3e
       -0.17832075 -0.0051003383 0.14479892 0.20988344
0000b0 f9 20 e4 bd 07 1b a3 bd 56 b6 98 3c e8 6f 61 be
       -0.111391015 -0.079641394 0.018641632 -0.22015345
0000c0 8c 6f 0f be 99 14 4c be 3d 59 a2 be 19 45 03 be
       -0.14007396 -0.19929732 -0.31708708 -0.12819327
0000d0 d4 09 12 3d 10 49 8b bd f4 64 8a bd 24 fd 5e bd
       0.035653904 -0.06801045 -0.067575365 -0.054440632
0000e0 18 d0 e3 3c ca fd 23 3e ab ce b9 3d 06 82 ea bd
       0.027809188 0.16014782 0.09072622 -0.11450581
0000f0 40 89 ae 3d 80 1d 0e bc ca 04 50 3c a3 fc f1 3d
       0.08522272 -0.008674026 0.012696454 0.11815765
000100 cd dd ba 3c 02 ea 07 bd e7 a1 78 bd 25 57 19 3c
       0.022810841 -0.03318215 -0.060701277 0.009359156
000110 8e ae 94 3c d2 58 b5 bd af 9f 3a be 91 dc 0a be
       0.01814964 -0.08854832 -0.18224977 -0.13560702
000120 eb ea 42 be ea 4f 2c be 21 0b 44 be 4d a6 ef bd
       -0.19034927 -0.1682736 -0.1914487 -0.11701641
000130 eb 57 8c be ea 8e 9a 3d 30 f0 40 3d 31 ef 8b 3d
       -0.27410826 0.0754679 0.04710406 0.068327315
000140 dd 11 2c be 7a cf c0 bd 5f 2f 95 3d 2a c2 c4 3d
       -0.1680369 -0.09414573 0.07284426 0.09607346
000150 1d 3f d8 bd e2 65 04 bd eb 0c 00 3d 8b ae f4 3c
       -0.10558913 -0.032323726 0.03126232 0.029868385
000160 d2 bb da bd 2d 14 83 bd dd 60 e6 3d 42 5c 74 bd
       -0.10680355 -0.064003326 0.11248944 -0.059658296
000170 4b 99 70 be ae 4b 38 3d 5b 78 37 3d ff a1 31 bd
       -0.23495977 0.04499405 0.044792514 -0.043367382
000180 1d 2a 83 be 9a d8 ac bd 6d 4f b1 3d ce 7e 9e 3d
       -0.25618067 -0.08439751 0.086577274 0.0773903
000190 ab 27 5d be 06 40 98 bd 03 b3 2d 3e ed bc 52 3e
       -0.21597163 -0.074340865 0.16962819 0.20579882
0001a0 cc 87 0d bc 22 a9 bd bd 77 ae 9a bd 9c 1e a6 3d
       -0.0086383335 -0.09260775 -0.07552808 0.08111307
0001b0 1b dc 8d bd ef fa c9 bd b6 cc 8f bc f9 8e d8 bd
       -0.069267474 -0.09862315 -0.017553668 -0.10574145
0001c0 47 17 9c be 5f eb 66 be fc e1 cc bd 95 d5 da 3d
       -0.3048651 -0.22550724 -0.100040406 0.10685269
0001d0 44 c6 f1 bd 35 4c 81 bd 27 57 b5 bc 94 11 94 3d
       -0.11805394 -0.063133635 -0.022136284 0.07229915
0001e0 0a 7f 02 bd 5a d8 ec bd ed c4 c5 3d 02 a5 0e 3d
       -0.031859435 -0.11564703 0.09656701 0.034825332
0001f0 20 2d 07 bc 65 bb 92 be 62 28 89 be 65 85 43 be
       -0.008250505 -0.28658596 -0.26788622 -0.19093855
000200 62 06 0c be 5c ab 18 bd 5a 37 2f be 54 ef b3 bd
       -0.1367431 -0.037272796 -0.17110959 -0.087858826
000210 4d fd 65 3c 40 10 12 bd 17 20 63 be 77 05 0d bd
       0.014037442 -0.03566003 -0.2218021 -0.03442904
000220 42 bb bf 3d a6 9e 69 3e 00 9b 4c 3e e3 38 ab bd
       0.093618885 0.22814426 0.19981003 -0.0836046
000230 30 da b5 3d 36 d7 ee bd d1 79 c6 3d 9c 61 fa 3d
       0.088795066 -0.11662142 0.096912034 0.12225649
000240 a6 f5 f1 3d 15 7e ab bc 09 a4 2f be 3d d3 28 be
       0.11814432 -0.020934144 -0.17152418 -0.16486831
000250 bb 1e b2 3d b5 0d 2f bc 30 3b ea bd d2 fc 9e bd
       0.086972676 -0.01068442 -0.1143707 -0.077630654
000260 ef b0 1f be 51 01 a1 bd c5 62 ef bd 3d 83 36 bb
       -0.15594839 -0.07861579 -0.11688761 -0.002784922
000270 d2 46 bd 3c 9e 74 eb bb ca 5b 19 be 4c a3 9e be
       0.023105059 -0.0071855327 -0.14976421 -0.3098396
000280 83 25 db 3d f0 a4 69 3c 2f ea 54 be 2b 45 28 be
       0.10700514 0.014260516 -0.20792459 -0.16432635
000290 e2 4b af 3d a0 d2 2e be fb 03 6e be 28 4a d4 bd
       0.085593954 -0.17072535 -0.23243706 -0.10365707
0002a0 5f 98 27 3e 01 6b 9d 3e 63 24 09 be ae 0e 0a 3d
       0.16366719 0.307457 -0.13392787 0.033705406
0002b0 3d 86 48 3d 5e 24 e1 3d c6 96 35 bd a3 cd 88 3d
       0.048956145 0.109932646 -0.044333242 0.06679847
0002c0 38 e3 29 bd 15 6f 6b be 72 e7 51 be 1d f8 14 be
       -0.04147646 -0.22991593 -0.20498446 -0.14547773
0002d0 54 0d 43 3e 9b 51 05 be 9d 48 a3 be b7 0c 8d be
       0.19048053 -0.13019411 -0.31891337 -0.27548763
0002e0 02 c8 1c be f7 0e e7 bd dc c4 93 be d6 e5 b1 bd
       -0.15310672 -0.11282151 -0.2886113 -0.08686416
0002f0 9b 58 c7 bc 1a 32 97 3d 31 4e 8e 3c 78 21 6f bd
       -0.024334243 0.07382603 0.017371269 -0.058381528
000300 82 95 f3 3c 55 eb 15 be 5f 6a 54 be 3a c3 9e 3d
       0.029734377 -0.14640553 -0.20743702 0.0775208
000310 9f 33 44 bd 1f 89 c4 bd 54 cf 81 3b 80 e2 9e 3d
       -0.047900792 -0.09596466 0.003961483 0.07758045
000320 73 30 5e bc 24 a1 a9 3b 92 b0 41 be 8d b7 92 bd
       -0.013561356 0.00517668 -0.18915012 -0.07163916
000330 0c a4 16 be 2a 86 81 3a 90 a2 16 bd 43 05 43 be
       -0.14711016 0.0009881903 -0.036776125 -0.19044976
000340 63 7f 82 be 92 7f 6a be db d0 bf 3d 7b 9a 60 bd
       -0.25487813 -0.22900227 0.09366008 -0.054834824
000350 16 e0 ac be ff 23 e7 bd 1d 03 06 3e 13 be 8b bc
       -0.33764714 -0.112861626 0.13087125 -0.017058408
000360 5d 53 c5 bd d6 cf 88 bd 53 6c 6d 3d 87 22 0e 3e
       -0.09635041 -0.066802666 0.057964634 0.13880359
000370 ad e6 ed 3d dc ca cb 3a 9a 22 e0 3d ff f3 08 bd
       0.116162635 0.0015548128 0.109441 -0.033435818
000380 be 4e fd bd ee 44 98 3d 27 41 ca bb 45 97 b3 bd
       -0.123685345 0.07435022 -0.0061723175 -0.08769087
000390 c8 80 d6 bd 37 2a b7 3b 2b a7 35 3e 0f 1a 0c 3e
       -0.10473782 0.005589749 0.17739551 0.13681816
0003a0 2b a2 18 be 8e fd b9 bc 3d 9b 41 bd 0b e9 0e 3e
       -0.14905612 -0.022703912 -0.047267187 0.13956086
0003b0 d0 83 b4 3c 5a a6 6d ba fb d7 a5 be 86 4d 30 be
       0.02203551 -0.0009065621 -0.32391343 -0.17217073
0003c0 80 06 86 3d 5d 88 15 3d c8 ff 8e be fa 11 05 be
       0.065442085 0.036507 -0.2792952 -0.12995139
0003d0 00 1d 20 3d 3b 32 59 3d e0 12 a9 3c df 4b da bd
       0.039090157 0.05302642 0.020638883 -0.106590025
0003e0 3c 80 0c 3e 7d 13 d7 3c ff a8 29 bd 3a 1c f6 3c
       0.13720793 0.02625441 -0.041420933 0.030042756
0003f0 3f 5a e2 3c 83 77 fd b9 e9 f8 7b 3e ac 88 ed 3d
       0.027630923 -0.00048344964 0.2460667 0.11598334

conv.3.bias f4 [16]
000000 c0 28 3f be d9 0f 30 be 41 cf 6c be 61 a9 a6 be
       -0.18667889 -0.17193545 -0.23125936 -0.325511
000010 1e 4b b9 bd 31 3f 2a bd aa aa 4d be c3 96 6b be
       -0.090475306 -0.04156417 -0.20084634 -0.2300673
000020 10 86 e1 3a 41 96 b1 be 74 5e 8e bd 76 f0 3d be
       0.0017206091 -0.34684947 -0.06951609 -0.1854876
000030 c4 35 f6 bc 2a 7a b0 3a b7 94 e6 bd 41 af 23 bc
       -0.030054934 0.0013464142 -0.11258834 -0.009990514

conv.6.weight f4 [120, 16, 5, 5]
000000 11 b2 e3 3d 01 11 0d 3d 96 8d f8 bd 66 7b a1 be
       0.11117948 0.034440044 -0.121363804 -0.31539458
000010 ca f9 b3 bd a9 93 dc 3d e1 52 cc 3d fe 98 76 3d
       -0.08787878 0.107703514 0.099767454 0.0602045
000020 83 97 13 3c 87 ce 1a 3e 33 ef 50 3c 2d b8 17 3a
       0.009008291 0.15117846 0.012752342 0.0005787637
000030 c6 da ea bc cd 37 61 3d 2b a4 1c 39 65 cb d7 bd
       -0.028668772 0.054984856 0.00014938477 -0.10536841
000040 75 7f a6 bc 95 4a dd bd 4a 33 dd bd 25 72 02 be
       -0.020324448 -0.10805241 -0.10800798 -0.12738855
000050 c8 fc 1d bd 09 88 3c be ab 96 29 bd 8a fd 67 bd
       -0.03857115 -0.18411268 -0.041403454 -0.056638278
000060 e5 1b 84 be 62 95 c8 bd 4a d4 5e be eb 85 46 bd
       -0.25802532 -0.097941175 -0.2176067 -0.048467558
000070 13 56 81 3e b1 99 4f 3d e9 69 28 be 08 7b 92 3e
       0.25260982 0.05068368 -0.16446652 0.2860949
000080 29 ff a7 3e 76 33 df 3d 44 e5 dc 3c ce cc c2 bd
       0.3281186 0.10898487 0.026964791 -0.0951172
000090 a3 29 72 bd e0 50 10 bd 36 16 50 bd 22 fa 62 bb
       -0.05912174 -0.03523338 -0.050802432 -0.0034633954
0000a0 d2 13 21 3e 15 dc 10 bc 28 04 11 be cb 62 7e bd
       0.15730217 -0.008841534 -0.14161742 -0.062105935
0000b0 e9 6a a8 bd 31 52 05 3e f0 05 62 bd 6d 12 04 3c
       -0.082235165 0.13019635 -0.055181444 0.008061034
0000c0 f5 a1 f3 bd 03 9b f1 bc c0 87 e0 bd 0a 7a 53 3c
       -0.11896125 -0.02949286 -0.10963392 0.012907514
0000d0 87 7d 2d 3e 12 5e fd 3d 36 7c 35 3d 35 d6 04 be
       0.16942416 0.12371458 0.04430791 -0.12972338
0000e0 a1 b2 6e bc 59 f5 af 3b 85 a5 09 3e 6f 99 15 be
       -0.014568956 0.005369824 0.13442047 -0.14609312
0000f0 92 6f 8d 3d d8 1c 18 3e 88 b2 0f bc 94 c4 af bd
       0.06906046 0.14854753 -0.0087705925 -0.08582416
000100 f7 e5 04 3e ae 00 2d 3b f9 59 a7 bc 22 c8 36 3e
       0.1297835 0.002639811 -0.020428644 0.17849782
000110 23 d2 71 3e 5c 7d 1f be b7 9d f5 3d 33 63 8f 3d
       0.23615317 -0.15575165 0.11992972 0.070013426
000120 dd e8 40 3d 21 64 05 be e1 cd 8a be a0 cf ef 3d
       0.047097076 -0.13026477 -0.27110198 0.11709523
000130 a5 69 85 3e cf 40 27 3d 57 aa 26 3d 14 dd 2b 3d
       0.26057163 0.04083329 0.040689792 0.041958883
000140 cc 8e 12 3e 83 13 00 3e bc bd dc bb 8f 14 cb bd
       0.14312285 0.12507443 -0.0067364853 -0.099160306
000150 eb 84 b5 bd 24 29 65 3c ac 6b 46 bd 8e 05 14 3b
       -0.08863243 0.0139868595 -0.048442528 0.0022586319
000160 8a 83 71 3d ac 2b 3f 3e 1e 75 34 be a4 ac bb bd
       0.058963336 0.18669003 -0.17622802 -0.09163788
000170 06 45 7c 3c cc 67 b7 3d e9 46 24 be 99 dc fb bd
       0.015397316 0.089553446 -0.16042675 -0.12297935
000180 ea 75 61 bd 1f b2 1d 3e 08 1e 6d 3d ec 41 27 be
       -0.055044092 0.15399979 0.05788997 -0.16333741
000190 5b 81 82 be 1e 21 aa be 78 c4 92 3d 53 05 02 3f
       -0.25489315 -0.3322839 0.0716638 0.50789374
0001a0 08 cd 1f 3e 18 a9 df bb 45 e0 2e be 1f a9 71 be
       0.15605557 -0.0068255775 -0.1707774 -0.23599671
0001b0 e7 8e 9a bd de fb 33 3e da f4 79 bc ee 63 d5 3d
       -0.07546788 0.17576548 -0.015256131 0.10419451
0001c0 53 62 17 3e 7d 96 5e bd 56 94 41 be 51 b9 06 3e
       0.14783601 -0.054342736 -0.18904242 0.1315663
0001d0 8f ca d5 3d 3a 4c eb bb 94 65 96 3d 6d 95 80 3d
       0.104390256 -0.007180718 0.07343593 0.06278501
0001e0 73 62 f2 bd 1a d1 d8 bd 61 a9 64 bd 16 75 f2 bd
       -0.11835184 -0.10586758 -0.055825595 -0.118387386
0001f0 99 60 01 be bc ac f8 bc dd 19 c8 bd 9a 82 92 3c
       -0.12634505 -0.030355804 -0.09770558 0.017884541
000200 0f fa 3d 3e 88 87 99 3e 8a 64 04 be ac 6b 19 bd
       0.18552421 0.29986215 -0.12928978 -0.0374562
000210 65 6d 4a 3e a6 9c aa 3e 54 fa 32 3e a9 b0 ff 3c
       0.19768293 0.33322638 0.17478305 0.031212168
000220 54 44 38 3d 51 29 76 3d c1 3e 90 bd d4 e8 8b bd
       0.044987038 0.060097996 -0.07043219 -0.06831518
000230 48 7d 03 bd 16 28 35 3d 03 14 37 3e 7b 68 7d 3e
       -0.0321019 0.044227682 0.17878728 0.24746887
000240 6f b1 5c bd 4d 6f 6e 3d 00 8c 72 3d 4a c7 03 3e
       -0.05388015 0.058211613 0.059215546 0.12868991
000250 4a 0d ef 3d bf b3 10 bb c1 14 61 3e 4e e1 92 3e
       0.116724566 -0.0022079793 0.21980573 0.2868752
000260 6f 18 44 3b 36 66 38 be 5b e3 61 3d 08 2f 33 bc
       0.002992179 -0.1800774 0.055148464 -0.010936506
000270 cd 8b b0 3d df 13 cb bd 2c e6 3d be 21 97 c7 bd
       0.08620415 -0.099158995 -0.18544835 -0.097456224
000280 f1 5a 33 bd a6 05 2b bd 75 f8 94 3c a1 f7 c5 3d
       -0.0437879 -0.041753434 0.01818488 0.09666372
000290 cb e5 01 3e c8 04 48 be 61 e2 ad 3c 90 cb 8c 3d
       0.12685315 -0.19533074 0.02122611 0.06874764
0002a0 19 39 26 3c 07 0f 15 bd 2d 41 30 be 7d 48 29 be
       0.010145449 -0.036391284 -0.17212363 -0.16531558
0002b0 8d 12 76 3e 7e 67 dd 3d 9a f3 49 be 49 2b ca 3e
       0.24030514 0.10810755 -0.19721833 0.3948615
0002c0 00 9a d7 3e 10 c8 f2 3d 3d b4 b9 bd c8 d0 96 be
       0.4210968 0.11854565 -0.09067581 -0.29456162
0002d0 2f ab 56 3e 1f 11 81 3e 0b b1 87 bc eb 9a 9a 3b
       0.20963739 0.25208375 -0.016563913 0.0047181747
0002e0 fe 51 b5 bd ec 6d 69 bc fb 06 8f bd c6 2a 58 3e
       -0.088535294 -0.014247399 -0.06983753 0.21110067
0002f0 f9 19 cb 3c a5 0a 02 3e 96 66 6a bd 70 68 2e be
       0.024792658 0.12699373 -0.05722674 -0.17032027
000300 55 33 dc 3d d5 df 58 3d 5a 90 e9 bc c8 c6 ab 3c
       0.10751978 0.052947838 -0.028511215 0.02096881
000310 38 a0 f3 3a dc 35 a9 3d 41 a6 75 bd a8 0d 1e be
       0.0018587178 0.08262226 -0.059973005 -0.15434897
000320 0c 50 ae bd d8 ce 63 be e1 bb 57 be 45 8e 39 bd
       -0.085113615 -0.22246873 -0.21067764 -0.045301694
000330 f3 b0 58 3e be e9 9d bd 11 cc 14 bd de 09 88 bc
       0.21161251 -0.077105984 -0.036327425 -0.016606268
000340 a0 7f 06 3d 4e 72 85 3e ab c9 e2 3d 44 bb 74 3d
       0.032836556 0.2606377 0.11073621 0.059748903
000350 9c a8 f5 3d c2 d8 30 be fa 2b fb 3d 0c 84 98 3d
       0.1199505 -0.17270187 0.12264247 0.07447061
000360 bb 00 f6 bd 4f ba fc bd c4 6e 22 be 00 72 b9 bd
       -0.12011858 -0.12340223 -0.15862566 -0.09054947
000370 f8 cc 29 bd b1 fa 9e 3c d8 35 e5 3d 4e 0a 12 be
       -0.04145524 0.019406648 0.111919105 -0.14261743
000380 a0 c4 8d be f2 46 f4 3d eb ff b3 3d df b4 00 be
       -0.27689075 0.11927594 0.08789047 -0.12568997
000390 ca ca 59 be 78 a2 18 be 0b 10 ab 3d b3 10 11 3e
       -0.21268764 -0.14905727 0.08352669 0.14166526
0003a0 0b ba f4 3c 8a ee 22 3d e6 6f 0b 3e b8 4c c7 3d
       0.029873868 0.03977827 0.13616905 0.0973143
0003b0 1a b2 a5 3d da 91 a7 3d 3f 63 bd 3d 59 6f e1 3d
       0.08090611 0.08182116 0.09247445 0.11007566
0003c0 78 be 94 3d 90 cb c3 3b 9c 2b fc bd 67 ac 0a 3d
       0.072628915 0.0059751943 -0.12313005 0.033855822
0003d0 71 de b3 bd f0 e8 ed bc d3 a4 84 bc 45 f3 4e 3d
       -0.08782662 -0.029041737 -0.016191876 0.05052497
0003e0 f4 e4 03 be 95 d8 8d be 80 63 86 3e fe d3 e6 3e
       -0.12880307 -0.277043 0.26247787 0.45083612
0003f0 01 e3 04 3f 41 52 ad 3e a6 c4 5c 3e 41 28 92 3d
       0.5190888 0.33851817 0.2155939 0.07136584

conv.6.bias f4 [120]
000000 59 8b c2 3c e1 39 4d 3d 7b 5f d1 3c 8f 2f 21 bd
       0.023748087 0.050104026 0.025558224 -0.039351996
000010 f6 6a 24 bd 64 38 8b bc 95 5d 41 3d 55 fd 03 3c
       -0.04014107 -0.016994663 0.047208387 0.0080560045
000020 8f 38 61 bd 27 01 15 3d 47 7a 2b bd b5 98 85 bc
       -0.05498558 0.036378052 -0.04186466 -0.016308168
000030 6b 20 90 3d 04 e7 31 3d 29 47 43 3d 64 fc d6 3c
       0.07037433 0.043433204 0.047675285 0.026243396
000040 73 b3 0b 3e ff c0 80 3d b4 28 20 bd 70 d1 5c 3e
       0.13642673 0.06286811 -0.039101318 0.21564269
000050 13 ed 96 bd f6 b1 0d bd 94 5d 9e 3d 95 6e f8 bb
       -0.07369437 -0.034593545 0.07732692 -0.007581542
000060 80 95 26 3e f8 ae 4b 3d a3 3a c7 3d 03 89 2a 3d
       0.16267967 0.04972741 0.09727981 0.04163457
000070 0d 15 02 3e 9a f8 f5 3c cf 86 94 3d d6 27 a2 bd
       0.12703343 0.030025769 0.07252275 -0.07917754
000080 d5 6a a2 3d 09 9d 9a 3d 77 4a a6 3d 0f bb ea bd
       0.07930533 0.07549483 0.08119672 -0.1146146
000090 95 b5 11 3d 41 2a 16 bc 2b 6a 81 bc 5c a3 39 bd
       0.03557356 -0.009165348 -0.015797695 -0.045321807
0000a0 e4 4e b7 3d 15 de ab bc 1d 53 06 bb d7 a8 40 bd
       0.08950594 -0.02097992 -0.0020496317 -0.04703602
0000b0 87 55 02 3a c1 1d 10 3d 7f 6a 9b bd 44 dc 44 bd
       0.0004971851 0.035184626 -0.07588672 -0.048061624
0000c0 4d 8f 32 3c 3f f8 1e bd 07 e2 50 3c c6 04 8f bd
       0.010898423 -0.038810965 0.012749202 -0.06983332
0000d0 e9 b7 2f 3d 68 9f 44 bd 78 80 c4 3d 8f 35 ce 3b
       0.0429 -0.048003584 0.09594816 0.006293006
0000e0 ed cb db 3c 9c c3 02 3e 00 bf 46 3d d3 3d a7 bd
       0.026830638 0.12769932 0.048521996 -0.08166089
0000f0 a2 d0 3c 3d 65 c2 36 bd f6 44 ac bc a4 79 be bd
       0.046097405 -0.044618983 -0.021028977 -0.09300545
000100 9a 59 ca 3c 93 47 ec bc 7e 72 c3 3c d3 39 73 3b
       0.024700928 -0.028842723 0.023858305 0.0037113323
000110 be 33 93 3d 7f cd 1f 3d 3b 99 fc 3c 8d 19 95 3d
       0.071876034 0.039014336 0.030834785 0.07280264
000120 bb f3 35 bd 9f fd 1f be d4 14 a4 3c 65 47 99 bc
       -0.044421893 -0.15624093 0.020029463 -0.018710801
000130 2b 8d 1c 3c 47 e3 5b bd 75 a5 02 be 84 bc 18 bd
       0.009555141 -0.053683545 -0.1275843 -0.037289158
000140 8e 52 a5 3d e7 ee 68 3d ec ac 67 3d d7 e2 5e 3d
       0.08072387 0.05686846 0.056561396 0.05441555
000150 4a d8 7c 3d d1 1b 27 3d 25 e7 8f bd c0 26 84 bd
       0.061729707 0.040798012 -0.07026509 -0.064527035
000160 77 99 cc bd 34 1f 02 3e 04 53 2e bd 20 18 f5 3b
       -0.099902086 0.12707216 -0.04255964 0.0074796826
000170 44 7d 48 3d b3 7d b4 3d 67 e7 f2 bc 1b 46 77 3c
       0.048947588 0.08813038 -0.029651357 0.015092398
000180 86 f2 87 bc 2d 9a 6d 3d 03 44 55 bd b8 de 2a bc
       -0.016595136 0.05800836 -0.052066814 -0.010429077
000190 0b bc 17 bc 89 6c 9c bb ff 13 85 3d 37 9e 37 3d
       -0.0092611415 -0.0047736806 0.064979546 0.04482862
0001a0 0c 54 98 bb fe 59 81 3d ba ba 47 3d 0f 38 be 3d
       -0.004648691 0.06315993 0.04876206 0.09288036
0001b0 2b 5c 2a 3d c2 83 54 3d 1d 58 b9 3b b1 a3 cb 3c
       0.041591804 0.051883467 0.005656256 0.024858328
0001c0 81 5e 92 bd bb 11 7c 3c f2 fb 38 3d 07 ec 0e 3c
       -0.071469314 0.015385087 0.04516215 0.0087232655
0001d0 b4 93 02 3c d8 91 ee bb e7 fa 87 bc 69 5f e3 3c
       0.0079697855 -0.0072805695 -0.016599132 0.027755456

fc.0.weight f4 [84, 120]
000000 9c 4c 5b be 2a 9c 96 3c e3 e9 0d be 6e cf c0 bd
       -0.21415943 0.018385012 -0.13858752 -0.09414564
000010 c0 a4 b2 3d 9b c2 15 be a7 b3 41 be 6f 19 ed bc
       0.0872283 -0.14625017 -0.18916188 -0.028942792
000020 cc ba 84 3d 9c f2 35 3c ad d2 84 3c 0a 84 0b 3c
       0.06480941 0.011105206 0.01621374 0.008515367
000030 ae 9a cc 3e 63 c7 16 3e 3a 33 bd 3d 8f e8 e8 3d
       0.3996176 0.14724497 0.09238286 0.11372482
000040 82 60 66 bc b6 64 c3 3d ba a5 2b bd fa 62 5d 3d
       -0.014061095 0.095406935 -0.041906096 0.05404947
000050 44 28 c2 bc 7f e5 88 bd a0 6b 48 3e cf 7b 5f bc
       -0.02370084 -0.06684398 0.19572306 -0.013640358
000060 cb b9 aa 3c ba 36 cb bb 6f 45 10 3e 05 6b 66 3d
       0.020840546 -0.0062015923 0.14088987 0.056254406
000070 5e 97 36 3e 04 bd d3 bd 1f 00 ad 3d ca 73 23 3e
       0.1783118 -0.10338786 0.08447289 0.15962139
000080 77 e6 17 3e 82 c5 74 3d f0 02 03 3e 80 2f 89 be
       0.14834009 0.05975867 0.1279409 -0.26794052
000090 85 3b 8c 3e c2 d0 fa 3d 10 7e a6 3e a8 ab e6 3b
       0.2738916 0.12246849 0.32518053 0.007039506
0000a0 34 14 0c 3e a9 79 51 be 3d 61 8f 3d fc 36 07 be
       0.13679582 -0.20456566 0.070009686 -0.13204569
0000b0 1d a3 79 be 32 37 93 bd b0 1b 94 be 8f d6 30 3e
       -0.24378629 -0.07188262 -0.28927374 0.17269348
0000c0 fb 29 20 3e c2 d3 ba bc cf e0 11 be 6c 38 57 bd
       0.15641014 -0.022806052 -0.14245914 -0.052544042
0000d0 30 0f 89 be e7 d0 ff bd 3a 93 a4 bd 94 30 41 be
       -0.267694 -0.12491017 -0.08035894 -0.18866187
0000e0 07 2b 3e be 5e 6f 17 3e a7 f8 64 3e 51 84 81 3d
       -0.18571101 0.14788577 0.22360478 0.063240655
0000f0 b1 ba 5c bb 76 ec 07 be 90 1e 1f bd 68 16 64 be
       -0.0033680613 -0.13273796 -0.038847506 -0.22274172
000100 44 95 03 3e a0 1a 95 bd 95 3e 9c 3c bf fb 08 3e
       0.12849909 -0.07280469 0.01907281 0.13377284
000110 7c f7 05 3e 6d 32 85 3d 2f b9 fd bc 65 84 78 bd
       0.13082689 0.065037586 -0.030972091 -0.060673136
000120 35 94 39 be 3d 63 00 be 85 32 ec 3d 3a e5 af 3d
       -0.18122943 -0.12537856 0.11533073 0.08588643
000130 4e 0a d7 3e 21 e6 88 3c 73 16 31 3d 95 31 a5 3d
       0.4200005 0.016711297 0.0432343 0.08066098
000140 bf a9 93 bd f5 fa 0e be e6 aa 48 3d 5c d9 64 3d
       -0.07210111 -0.1396292 0.048991106 0.055871353
000150 9a 4d 33 bd f1 46 4b be 5e c5 af 3d 04 fa 8e 3c
       -0.04377518 -0.19851281 0.08582567 0.017453201
000160 0b 73 64 be 31 6a db 3c f7 e6 ed bd b9 26 b4 3d
       -0.2230951 0.026784034 -0.11616319 0.08796448
000170 9d 36 bd bd 20 fc 1c 3e 01 c5 31 3d d0 b9 2a 3e
       -0.09238932 0.15330553 0.04340077 0.16672444
000180 c0 13 8d 3d 5d cc 2d 3e 7a ca 00 3d 1c e8 17 3c
       0.06888533 0.1697249 0.031443097 0.009271648
000190 82 62 22 be cc 38 43 be 69 fa 96 3d 0b 83 a7 3d
       -0.1585789 -0.19064635 0.07371981 0.08179291
0001a0 9b 2e d7 3d 2c 84 77 3d 4b 0b e1 3c d1 e7 ac 3d
       0.10506936 0.060428783 0.027471205 0.08442653
0001b0 b4 ab 51 bc 41 7b 4e bd f6 4f 0f 3d 3a 9e 3c bc
       -0.012797285 -0.050410513 0.034988366 -0.0115123335
0001c0 e5 a9 6b 3d 0b da ac 3e fe 25 57 3c e6 e6 2d 3c
       0.05753507 0.33760104 0.013131617 0.0106141325
0001d0 8e 7c 0f ba 62 29 73 bd 74 30 ec 3d 37 08 c9 bd
       -0.0005473577 -0.059365638 0.11532679 -0.0981602
0001e0 3f 43 90 3e 73 9a 06 be 6f 0b b5 3e 68 f3 49 3d
       0.28176305 -0.13144855 0.35360286 0.049304396
0001f0 05 fb 86 3d f6 ae 03 3f a3 a3 87 bd fa b7 da 3d
       0.06590847 0.51438844 -0.06623008 0.10679622
000200 43 0b a9 bd a9 16 96 3d 7a 87 50 be 41 29 a1 bd
       -0.08254101 0.07328541 -0.2036418 -0.07869197
000210 21 7a 06 be ac 7f d5 3d 46 04 9e bd d7 95 5c 3e
       -0.13132526 0.10424742 -0.07715659 0.21541534
000220 64 3c 9e 3d d0 4d ac 3d 75 2a 5e 3d a4 ec 87 3e
       0.07726362 0.08413279 0.05423971 0.2654773
000230 db 06 53 be b7 c7 a6 3d c8 d9 43 bc bf bb d7 3d
       -0.20608084 0.08143561 -0.011953779 0.105338566
000240 f8 97 74 3d 63 13 09 be d2 49 42 bc 54 4f 3d 3e
       0.05971524 -0.13386302 -0.01185842 0.18487293
000250 5c f4 d6 3d 52 d9 41 3d a1 47 08 be 0a 45 12 3e
       0.104958266 0.047326393 -0.13308574 0.14284149
000260 6b 15 73 be 4e bb 07 be cb 43 10 3d 16 f6 ab 3d
       -0.23738639 -0.13255045 0.035220902 0.083965465
000270 8f c1 9e be 1e aa 63 3e b9 58 1d bd 47 1c be 3c
       -0.31007048 0.22232863 -0.03841469 0.023206843
000280 e7 62 a7 3c 4b 38 54 3e 82 7d f2 3d 18 2a 4d be
       0.020432903 0.20724599 0.11840345 -0.20035589
000290 eb 65 26 3d 30 29 29 be 68 8c 29 be 33 43 34 bd
       0.04062454 -0.16519618 -0.16557467 -0.0440094
0002a0 89 67 03 bd 43 5f 09 3e 3d 5a db 3c cb 7c 91 3e
       -0.03208116 0.13415246 0.026776427 0.28415522
0002b0 a9 e5 5b bd f7 42 11 3e fa 03 0d 3d 45 ec fe bd
       -0.053685818 0.14185701 0.03442762 -0.124474086
0002c0 b7 8e 11 3e 66 49 de 3d 6b 11 6e be 7b e4 d8 3b
       0.14214598 0.108538434 -0.23248832 0.006619034
0002d0 54 a2 0a 3d b6 40 15 3e 73 27 20 be 9e fa 36 3d
       0.033846214 0.14575467 -0.15640049 0.0446726
0002e0 bb 81 10 3c c2 4a 92 3c 2d 5a 48 be 1f cb e0 bc
       0.008819993 0.017857913 -0.1956565 -0.027440606
0002f0 4c ee c8 3d 06 bc ca bd fd 2a 46 3d 26 9e b1 3d
       0.098110765 -0.09899144 0.04838084 0.086727425
000300 23 c2 f4 3c 19 7a 47 3d 0b 8b 90 be 08 2a 24 bd
       0.029877728 0.048700426 -0.2823108 -0.040079147
000310 b3 ad 7c 3b 03 56 c6 bd 5b 96 85 3e 27 5f 67 be
       0.0038555681 -0.09684374 0.26091275 -0.22594891
000320 28 0f d9 3d c6 36 05 be a0 dd 42 bc 7b 10 f0 3d
       0.10598594 -0.13009176 -0.01189366 0.117218934
000330 68 96 2f be 0d 21 bf 3d d1 2f d3 3d aa 99 d2 bd
       -0.17147219 0.09332476 0.10311855 -0.10283215
000340 48 3b b8 bd 91 43 95 3d 58 ad 9a 3d 3b f8 13 be
       -0.08995682 0.07288278 0.07552594 -0.14450161
000350 a1 37 28 3c 00 8c 2f 3d 34 1a 5a be 06 23 9d bc
       0.010267169 0.042858124 -0.21299058 -0.01918174
000360 de 05 4e 3c ad fb 10 bc 05 2a 47 3b 2d 7b f5 3d
       0.012574641 -0.008849067 0.0030390036 0.119863845
000370 05 a0 4b 3e 8c 15 92 bd a5 25 9d 3d d1 8b eb 3c
       0.19885261 -0.07133016 0.07673196 0.028753193
000380 18 2e 05 be 33 e8 fd bd 3f 79 c3 bc b9 be dd bc
       -0.13005865 -0.12397804 -0.023861526 -0.027068483
000390 cb 1d 2f bc 03 40 42 3d e4 f9 a9 3d b3 be 80 be
       -0.010688256 0.047424328 0.08299616 -0.25145492
0003a0 14 89 5a bc bc 3c 10 be ab 86 69 bd 9f ce 55 3d
       -0.013338346 -0.14085668 -0.057013195 0.052199002
0003b0 40 ed a1 3d 58 23 e1 bd a0 05 99 3d 3e b2 3f 3e
       0.0790658 -0.109930694 0.07471776 0.18720338
0003c0 df 60 95 be 07 35 96 3e d7 c7 17 3e 38 5d 5f be
       -0.2917547 0.29337332 0.14822327 -0.21812904
0003d0 2d c5 60 bc b0 ce 9b bd 0f 2a 68 bd b3 32 89 bd
       -0.013718885 -0.07607782 -0.056680735 -0.06699123
0003e0 9f d8 0f 3e 7c 8b 89 bd 52 d3 f9 3d e3 cb 34 3e
       0.14047478 -0.06716058 0.12198509 0.17655902
0003f0 fc 67 9e bd e5 a0 78 3e 4e 48 09 3e 99 8b 7c bd
       -0.07734677 0.24280126 0.13406488 -0.06165657

fc.0.bias f4 [84]
000000 d6 a1 eb 3d bd eb 8d be c9 0b c4 3d 1b 87 a9 bd
       0.11505477 -0.27718917 0.0957256 -0.082777224
000010 66 22 2f 3a a2 82 cb bd 53 c5 bc 3d c8 ec 4d be
       0.0006680846 -0.099370256 0.09217324 -0.20109856
000020 89 c8 b5 be 7d 7b 61 3d 4a e6 62 3d c2 ab 18 3d
       -0.3550456 0.05504941 0.055395402 0.037273176
000030 6c 4c 30 bd 2c 4a b3 bd 3f 79 fe be b4 14 13 3e
       -0.04304163 -0.087543815 -0.49701878 0.14363366
000040 32 34 09 3d e1 f4 de bc c6 ca 7f 3c c3 e7 01 3e
       0.033497043 -0.027216377 0.01561231 0.12686066
000050 fc 81 99 bd 22 43 20 3d 3c 5e c8 bd 3a 88 6a 3d
       -0.07495496 0.039126523 -0.09783599 0.057258822
000060 f2 b7 e0 3d 19 05 93 bd 02 ac 73 bd 37 43 b8 bc
       0.10972585 -0.07178707 -0.05949021 -0.022492988
000070 0a 5e bf 3c bd 69 67 3c 33 68 9e 3d 95 be 9a 3c
       0.023360271 0.014124331 0.07734718 0.018889705
000080 1a b9 d5 bd b5 68 02 be 5a af 3b 3d f3 1a 27 be
       -0.10435696 -0.12735255 0.045821525 -0.16318874
000090 5e 76 1f be 6b 5b 9b bd 71 8c f4 3d e7 1a f6 3d
       -0.15572497 -0.07585796 0.119408496 0.1201685
0000a0 8d 52 f7 bd 54 b4 cb 3d 93 10 88 bc d8 2a ce bc
       -0.12076292 0.09946504 -0.016609466 -0.025166914
0000b0 a6 76 4e 3d 63 6b c5 bc 35 1c 82 be 79 79 21 3e
       0.05040612 -0.024099058 -0.25412145 0.15768994
0000c0 42 e7 be 3c d3 84 9f 3c 3c 8d fe 3d f1 c3 0a be
       0.023303632 0.019472515 0.12429282 -0.13551308
0000d0 3b 48 df bd 98 8c 50 bd 8c e8 78 3d 67 3c ff bd
       -0.10902449 -0.05091533 0.06076865 -0.12462693
0000e0 62 18 65 bd 47 54 44 be 1d 1f c7 3b 5f dc ba bd
       -0.055931456 -0.19172774 0.006076707 -0.09124064
0000f0 4b c0 4c be 2f b5 92 3d a4 c5 67 be 4f fd b8 3b
       -0.19995229 0.07163464 -0.22633988 0.005645431
000100 07 de 45 bd 81 ba 25 bd 13 44 c9 3d fa 40 c4 bd
       -0.048307445 -0.040461067 0.09827437 -0.09582706
000110 60 6a 19 3c 3a 6a ac 3d 67 a5 5e 3e 9d 6c 64 3d
       0.009363741 0.084186986 0.21742783 0.055767644
000120 88 d9 1a 3d af 89 fa bd 5a ad ba bd a0 f5 b2 bd
       0.03780511 -0.12233292 -0.091150954 -0.087382555
000130 71 39 93 3d f9 ea b6 be 19 96 6d 3d 3c 99 03 be
       0.071886905 -0.35726145 0.058004472 -0.12851423
000140 71 4d b7 bd 23 93 61 bc 13 4a 22 3e ff b4 80 bd
       -0.08950318 -0.01376799 0.1584857 -0.06284522

fc.2.weight f4 [10, 84]
000000 b0 71 34 3e 64 be 7f bd f9 85 78 3e ec a7 8f 3d
       0.17621493 -0.06243743 0.24269857 0.070144504
000010 3b b9 2f 3e ef 49 5a bc c0 e6 2a bd f1 b0 dc 3d
       0.17160504 -0.013323291 -0.041723967 0.107759364
000020 d4 6d 3b bd 43 30 d6 bd f2 3c 46 be 7a 4f cb bc
       -0.045759037 -0.10458424 -0.19359186 -0.02481817
000030 aa 47 19 be 8e 10 66 3d ff b6 8e 3b ff 8f 7e bd
       -0.14968744 0.05616813 0.004355311 -0.062149044
000040 88 9c 76 3e cb 3e 2e be 4a 5e 54 3e 23 dc 42 be
       0.2408315 -0.17016141 0.20739093 -0.19029288
000050 c9 24 93 3d 53 ca 6d be 37 df d9 bd 89 f7 0d be
       0.071847506 -0.23221712 -0.10638278 -0.13863958
000060 63 59 89 3d 4b e4 fe bd 25 c5 89 3d 95 d7 16 be
       0.06706502 -0.12445887 0.067270555 -0.14730676
000070 7c 2c d3 bd 4c c5 34 3e 0e b6 df bd 02 e7 5a 3b
       -0.10311219 0.17653388 -0.10923396 0.0033401852
000080 d9 2c 4b be 7b 16 de bd 31 3e 54 be ad 4d c4 3d
       -0.19841327 -0.108441316 -0.20726849 0.09585128
000090 85 83 94 be 71 f3 89 be 2f 34 7c 3d 2f 87 ba bd
       -0.2900659 -0.26943544 0.061573204 -0.091078155
0000a0 d1 f2 28 be 26 8a 73 bd 1f c0 f8 bd f4 1b 16 be
       -0.16498877 -0.05945792 -0.12146019 -0.14659101
0000b0 d2 f8 6c 3d f7 b6 51 be 8c 57 61 be df da f3 bd
       0.05785448 -0.20479952 -0.22006053 -0.11906981
0000c0 6f 6a 00 be e9 c4 43 be 59 e6 a6 3d be 67 00 bd
       -0.12540601 -0.19118084 0.08149404 -0.031348936
0000d0 69 63 0e bc 17 58 34 be 83 99 1b 3e 0b 84 28 3e
       -0.008690693 -0.17611729 0.15195279 0.1645662
0000e0 cc a2 8f be b1 a9 17 3e 6c ad af be b9 9c 0a be
       -0.28053892 0.14810826 -0.34311998 -0.13536347
0000f0 df 98 bb bd 94 a5 86 be d3 57 1c 3e 51 cb 53 3e
       -0.09160017 -0.262982 0.15267877 0.20683028
000100 7b 78 80 be 44 62 52 be af a6 7c be b7 fd 5e be
       -0.2509192 -0.20545298 -0.2467296 -0.21776472
000110 df 8f db bd aa 99 e1 bd b3 7a 03 be 3a d0 3c 3e
       -0.107208006 -0.11015637 -0.12839775 0.18438807
000120 98 5b 1d 3e 6f 54 6b bb 66 ee 69 be 1a a3 36 bd
       0.15366971 -0.003590848 -0.22844848 -0.04458914
000130 69 16 2a bd d7 bd a9 3c 58 0c 8b 3a aa 87 3d 3e
       -0.04152528 0.020720406 0.0010608537 0.18508783
000140 07 3b f6 3d 8e 4d c9 3d 26 0c 8a bd cc d2 82 3d
       0.12022977 0.098292455 -0.067405984 0.063878626
000150 40 f8 a4 be ae d1 18 3e c5 6c ca bd ed b4 05 3e
       -0.3222065 0.14923736 -0.098840274 0.13057299
000160 b7 88 8d 3e d0 83 16 be ef 86 69 3e 2b 5c 6b bd
       0.27643368 -0.1469872 0.2280538 -0.057460945
000170 50 80 31 bd 3b 3a ee 3d ca db f2 39 80 86 1e 3d
       -0.04333526 0.116322 0.00046321593 0.038702488
000180 7f 00 06 be 3a 7b 41 3e e5 f9 d9 3c f7 3a 4a be
       -0.13086127 0.18894663 0.026608417 -0.19749056
000190 e9 c8 58 bd 95 dd 32 3e f3 3d ec bd 7e aa 07 3e
       -0.052925978 0.1746734 -0.115352534 0.13248631
0001a0 ed d3 39 3b db 54 f1 bd ca ec 05 be d9 4b 65 be
       0.0028355077 -0.11783763 -0.13078609 -0.22392215
0001b0 e8 e1 1e 3e 1b 8a e1 3b 97 d5 04 bd 78 1f 91 3d
       0.15515864 0.0068829185 -0.032430258 0.0708608
0001c0 92 57 48 be fb 0b 20 be 49 84 0b be c7 c6 07 3d
       -0.19564655 -0.1562957 -0.13624682 0.033148553
0001d0 77 a1 52 3d d8 61 f0 3c 9c 13 75 be 9c 7a 01 3d
       0.051423516 0.02934353 -0.23933262 0.03161107
0001e0 a6 07 04 bd 15 bd e2 3a 1d 00 8c 3b 41 b6 99 bd
       -0.032233857 0.0017298782 0.0042724744 -0.07505465
0001f0 99 8b c0 3d 6b ba 81 be 7d 54 d3 bd d2 6f 61 bd
       0.09401626 -0.25337538 -0.10318849 -0.05503828
000200 3d 7b 34 3e 6f b7 5b bd 96 34 f6 bc e0 99 d2 be
       0.17625137 -0.053641733 -0.030054372 -0.41133022
000210 0b 35 18 3e 63 6d 19 3e 8c b5 cb bd cd 75 82 3d
       0.14863984 0.14983134 -0.09946737 0.06370125
000220 da 96 87 be a9 6f 03 be 11 e3 51 3e 36 15 1a be
       -0.26482278 -0.12835564 0.20496775 -0.15047154
000230 6f f8 46 bc d2 5a 11 bd a9 6c b4 3d ba ea 33 3e
       -0.012144192 -0.035487004 0.08809788 0.1757001
000240 3c f6 a0 3d 70 3e 2b 3e 2a 5c f2 bd 8d b4 c0 bd
       0.078594655 0.16723037 -0.11833985 -0.09409437
000250 21 9d d8 3d ef c9 56 3e 26 26 d7 bd c8 7b b2 3d
       0.10576845 0.20975469 -0.10505323 0.08715016
000260 53 1e ec bc cd 5a e6 bd 56 73 13 3e 25 7e 66 be
       -0.028823053 -0.112477876 0.14399466 -0.22509058
000270 07 ac b4 bd d4 03 40 be 69 c9 01 3e 9f cb dd 3c
       -0.08821874 -0.1875146 0.12674488 0.027074633
000280 a2 1f 5a bd 0f 55 e3 3d 33 88 1c be f9 bc d3 bd
       -0.053252824 0.11100208 -0.15286331 -0.10338778
000290 82 b5 89 3e 50 6e bf bd 1b 19 84 be 96 60 74 be
       0.26896292 -0.09347212 -0.25800404 -0.2386497
0002a0 1c 43 d3 3d dd 54 b7 3c 08 3b 0c 3e 6d c6 95 bc
       0.103155345 0.022379333 0.13694394 -0.018283093
0002b0 67 f0 1a be 91 1c 5f bc 96 c2 11 be fb de bd 3c
       -0.15130769 -0.013617651 -0.14234385 0.023177614
0002c0 bb b8 62 3b 03 4f eb 3d 5f e3 96 be 43 90 85 be
       0.0034594971 0.1148968 -0.29470345 -0.26086625
0002d0 6f 3d 61 bd a8 12 0b be 96 e8 0a 3c 83 25 8c be
       -0.05499023 -0.13581336 0.008478304 -0.2737237
0002e0 de 6d 9a bd 0d b9 9d be 96 b0 c0 3d 0d 06 86 be
       -0.07540487 -0.30805245 0.09408681 -0.2617649
0002f0 87 02 64 bd c9 8b 82 be f3 e2 fb 3d 6f 9a 6d bc
       -0.055666473 -0.25497273 0.122991465 -0.014502152
000300 9d 5b 13 3e 75 8f ac 3d fa 49 50 bd 6b 87 94 be
       0.14390416 0.084258 -0.0508518 -0.29009566
000310 18 fa 1d be a7 4b 81 be 3e 95 e3 3d bb 1a 00 3e
       -0.15427434 -0.2525303 0.1111245 0.12510197
000320 37 ae 08 3e ab 87 d6 3d d5 f7 b1 3d 1b 39 22 3d
       0.13347708 0.10475095 0.08689848 0.03960524
000330 c3 33 2d be a2 21 ad bd eb 66 8a be ad ad 7f be
       -0.16914277 -0.084536806 -0.27031645 -0.24968596
000340 fd 3e 7d 3e 5e f2 07 be a3 22 c7 3d fb d8 a0 bc
       0.2473106 -0.1327605 0.09723403 -0.019634714
000350 2e 58 df bc 74 3c 0a be 22 b5 7c 3e 80 46 39 bd
       -0.027263727 -0.13499624 0.24678472 -0.04523325
000360 65 ec 31 3e 96 c1 ca bd 09 e9 cd 3d ae 99 04 bd
       0.17375334 -0.09900205 0.100542136 -0.032373123
000370 c0 fb 8f be fc c3 e8 bd 0a a1 33 be 63 a4 cb 3d
       -0.28121758 -0.11365506 -0.175419 0.09943464
000380 b6 10 de bd bc 5f 81 be 72 49 07 bc 3f d8 7c be
       -0.10843031 -0.25268352 -0.008257257 -0.24691866
000390 bd 1e 7c be 19 89 32 3e 1c 38 b6 3d b3 1d 0d be
       -0.246211 0.17435111 0.08897421 -0.1378086
0003a0 20 45 0b be da 7f 43 3e 33 ae c8 3c 8d 67 97 3d
       -0.13600588 0.1909174 0.024497127 0.073927976
0003b0 e2 bf 84 bc ce ba 5b bb ee 8b 90 be 15 72 24 3e
       -0.016204778 -0.0033528092 -0.28231758 0.16059144
0003c0 82 62 7c 3e 48 57 a8 3c 44 7e a1 bc 7e c7 75 3d
       0.24646953 0.020549431 -0.019713528 0.060004704
0003d0 b8 46 43 3e c7 3e 40 bc fb 0c 14 be d8 db 16 3c
       0.19069946 -0.011733717 -0.14458077 0.009207688
0003e0 6a e5 81 be d0 0d bb bd 92 9f 2c bd d3 1f fc bd
       -0.25370342 -0.09133494 -0.042144366 -0.123107575
0003f0 5e eb c2 3d d5 de 41 bd 0a 0c 71 be 1d 3a 32 be
       0.09517549 -0.04733165 -0.23539749 -0.17404981

fc.2.bias f4 [10]
000000 80 48 28 3e 61 97 af bc ab 8f 08 bd a2 f6 a7 3b
       0.16433907 -0.021434488 -0.033340137 0.0051258365
000010 2e ba 57 3d 95 d3 30 be c6 dd 52 be c4 70 ed bd
       0.05266779 -0.17268212 -0.20592412 -0.11593774
000020 4d 06 71 3e 9d f0 a6 bd
       0.2353756 -0.08151362
